output/models/gnn_model.pt (torch, 25645 bytes, 6 tensors)

conv1.lin_l.weight f4 [64, 11]
0.068132885 -0.29477078 0.10633821 0.15214266 0.24787328 -0.13739057 -0.27275074 -0.23143016
-0.29440656 -0.22462405 -0.25529623 0.009175374 -0.17701842 -0.29278138 0.1369667 -0.083020225
-0.28425702 0.0018078673 -0.13318807 0.18724632 -0.1312213 0.14570129 0.075247236 0.28396896
-0.24188028 -0.09865879 -0.24871796 0.23658639 0.18671899 0.30705142 0.30482456 0.030352563
-0.010974299 0.028031556 0.20221758 0.25553682 -0.18744677 -0.152031 0.068198025 0.102724284
0.011912516 -0.1877403 -0.010843664 -0.09059165 0.13589795 -0.09918408 -0.17204556 0.052203067
0.101480074 0.09696421 0.2775854 -0.08695053 0.13600458 -0.099822894 -0.25658387 -0.22085942
-0.21672004 0.24511647 -0.15545046 0.20140237 -0.13285063 -0.19967483 0.1527251 0.1957837
-0.064241484 0.22936912 0.12825723 -0.13672793 -0.12338015 -0.05882467 0.15151371 -0.0009321886
0.14354752 -0.056299392 0.19334653 0.21375632 -0.16832905 0.27575815 0.15033324 -0.029872013
-0.16747807 -0.10461377 -0.034591675 -0.116132006 -0.23586005 0.2879252 -0.22428852 0.034421455
0.11921415 -0.10888206 0.19368799 0.20754096 -0.16969024 -0.260842 0.18283041 -0.25139177
0.18969695 0.093055755 -0.169713 0.27891156 -0.13920401 0.10351569 -0.2698257 0.091447
0.29195002 -0.23867214 -0.2337811 -0.19464989 0.27121818 0.16526304 0.21977001 -0.08098124
-0.1310181 0.16998854 -0.13886723 0.173411 -0.23676418 0.0028705406 -0.108408675 -0.13118625
-0.1648664 -0.05440921 0.21067911 0.12519059 0.098714545 -0.29279143 -0.13060792 -0.22469732
-0.20338355 -0.26267356 -0.10396409 -0.00065325585 -0.21311083 0.034513652 0.23486173 -0.17248905
0.18372619 -0.108476914 0.13281125 0.01626455 -0.026326397 0.111675054 -0.24856447 -0.28422296
0.1024471 0.065013416 -0.13613358 0.22406887 0.04241017 -0.2798152 -0.043954838 -0.12189952
0.24903113 0.057282515 -0.18067664 0.002049476 -0.18915525 0.05682707 0.28765243 0.031345002
-0.2858267 0.2961637 0.2330404 0.1464555 0.03685064 -0.2216841 -0.27614534 0.10530501
0.30611703 -0.26818824 0.051813994 0.10962838 0.005995062 0.302158 -0.008651108 -0.21410885
-0.08941714 -0.25051373 0.047497254 0.26655 -0.24269104 -0.25729823 0.2115995 0.23751831
0.011985098 -0.17863052 0.12970547 0.10607327 -0.114604734 0.06848478 -0.21974921 -0.1737783
0.2850158 -0.27227494 -0.20789026 -0.2360733 0.067040086 0.009570191 0.15169708 -0.015343884
-0.2562711 0.15053743 0.28433144 0.077866554 -0.2438194 0.28908992 0.007024288 -0.045402348
0.111867845 0.24460246 0.22037314 0.15602262 -0.04159843 -0.07800012 0.04062826 0.16876392
0.27910164 -0.05660797 -0.197175 0.28243232 0.29340369 -0.16238905 0.21408959 0.30775213
0.053597685 0.24098438 0.2826288 0.045008294 -0.1777455 0.12525278 -0.021252867 0.24384788
-0.006858864 0.06297097 -0.18027869 -0.04863311 -0.18170436 0.09420671 0.19531989 0.003825589
-0.14609744 -0.10404407 0.30750492 -0.14663576 -0.15941155 0.17478672 -0.27645183 -0.020420551
0.30502713 -0.16525276 0.28712264 -0.16910052 -0.28741997 0.018130196 -0.22174521 -0.1255466
00000000: 4189 8b3d 32ec 96be d9c7 d93d 49cb 1b3e
00000010: 7ed2 7d3e 1db0 0cbe fca5 8bbe 07fc 6cbe
00000020: 75bc 96be d903 66be 30b6 82be 4f54 163c
00000030: 5144 35be 71e7 95be 0041 0c3e 8206 aabd
00000040: 238a 91be f6f5 ec3a 7462 08be 80bd 3f3e
00000050: e05e 06be b832 153e 391b 9a3d 6164 913e
00000060: 77af 77be 9f0d cabd ecaf 7ebe b443 723e
00000070: 4333 3f3e d835 9d3e f711 9c3e f0a5 f83c
00000080: 8ccd 33bc 6fa2 e53c 2012 4f3e b9d5 823e
00000090: 0cf2 3fbe 04ae 1bbe 68ab 8b3d 1c61 d23d
000000a0: b72c 433c fe3e 40be a0a9 31bc 1d88 b9bd
000000b0: d528 0b3e 0621 cbbd b62c 30be e2d2 553d
000000c0: c9d4 cf3d 2c95 c63d ac1f 8e3e 1f13 b2bd
000000d0: c944 0b3e f26f ccbd f65e 83be f928 62be
000000e0: dceb 5dbe d0ff 7a3e 682e 1fbe 6c3c 4e3e
000000f0: ff09 08be 8f77 4cbe f863 1c3e 867b 483e
00000100: 0a91 83bd bddf 6a3e dd55 033e 6802 0cbe
00000110: bbae fcbd 23f2 70bd 6926 1b3e 1e5e 74ba
00000120: 1ffe 123e 319a 66bd a2fc 453e f0e2 5a3e
00000130: 735e 2cbe 2c30 8d3e f5f0 193e 27b6 f4bc
00000140: 5f7f 2bbe bf3f d6bd 00b0 0dbd 9ed6 edbd
00000150: 4c85 71be ef6a 933e e4ab 65be 83fd 0c3d
00000160: 8c26 f43d 8ffd debd 2556 463e 9e85 543e
00000170: 47c3 2dbe 158d 85be e537 3b3e 6cb6 80be
00000180: eb3f 423e 0494 be3d 3fc9 2dbe 7fcd 8e3e
00000190: 7f8b 0ebe 0900 d43d 9826 8abe 9148 bb3d
000001a0: 797a 953e 7866 74be 5064 6fbe 4d52 47be
000001b0: 1cdd 8a3e b73a 293e 640b 613e 7ed9 a5bd
000001c0: 9c29 06be 7a11 2e3e 3633 0ebe a792 313e
000001d0: 4f72 72be ae1f 3c3b 5e05 debd b055 06be
000001e0: bdd2 28be 31dc 5ebd 44bc 573e f631 003e
000001f0: da2a ca3d c2e8 95be 15be 05be 0e17 66be
00000200: c743 50be 267d 86be 20eb d4bd 423f 2bba
00000210: ba39 5abe 305e 0d3d 987f 703e f8a0 30be
00000220: b822 3c3e 2529 debd acff 073e 3c3d 853c
00000230: 75aa d7bc e4b5 e43d af87 7ebe ac85 91be
00000240: c9cf d13d c125 853d 9a66 0bbe 4f72 653e
00000250: 49b6 2d3d f043 8fbe fd09 34bd 75a6 f9bd
00000260: 0402 7f3e 12a1 6a3d 4c03 39be 8050 063b
00000270: eab1 41be 80c3 683d 2e47 933e 9e63 003d
00000280: e157 92be c5a2 973e 25a2 6e3e 6ef8 153e
00000290: b2f0 163d 2801 63be ec62 8dbe 27aa d73d
000002a0: 5fbb 9c3e f84f 89be e93a 543d d884 e03d
000002b0: 3a72 c43b 74b4 9a3e 60bd 0dbc 5a3f 5bbe
000002c0: 5520 b7bd 5643 80be 7b8c 423d 3e79 883e
000002d0: 0084 78be 98bc 83be 8aad 583e 0038 733e
000002e0: 255d 443c ebea 36be 83d1 043e f13c d93d
000002f0: e3b5 eabd c041 8c3d f005 61be f0f2 31be
00000300: 97ed 913e 9f67 8bbe 2fe1 54be 33bd 71be
00000310: 504c 893d 4acc 1c3c 7b56 1b3e ea64 7bbc
00000320: f735 83be 7c26 1a3e e493 913e 8078 9f3d
00000330: cbab 79be 9803 943e 002c e63b d0f7 39bd
00000340: f81a e53d 1179 7a3e 7fa9 613e 65c4 1f3e
00000350: 1e63 2abd 87be 9fbd d169 263d 73d0 2c3e
00000360: 69e6 8e3e c2dd 67bd 3ee8 49be f89a 903e
00000370: 0239 963e 5149 26be 4d3a 5b3e b091 9d3e
00000380: 3f89 5b3d 9cc4 763e b9b4 903e 9e5a 383d
00000390: eb02 36be 4442 003e 7e1a aebc 42b3 793e
000003a0: 52c0 e0bb edf6 803d fa9a 38be 8333 47bd
000003b0: b510 3abe 73ef c03d f001 483e bcb6 7a3b
000003c0: 919a 15be 0f15 d5bd 4971 9d3e af27 16be
000003d0: c83c 23be 4afb 323e 188b 8dbe 0049 a7bc
000003e0: 842c 9c3e 0538 29be bd01 933e b028 2dbe
000003f0: b628 93be c785 943c 2d11 63be 4a8f 00be

conv1.lin_l.bias f4 [64]
0.04954633 0.23559506 0.014189582 -0.14549564 -0.19274439 -0.14492212 0.21838544 0.19302441
-0.26736516 -0.19607717 -0.23957825 0.16567706 -0.19832599 0.2733569 -0.20405622 0.1484686
-0.15541476 0.21504332 0.11000893 -0.005834106 -0.13208488 0.12326214 0.10370771 -0.29359174
-0.013185673 0.013149927 -0.17730984 0.014214737 -0.22032273 0.073091246 0.07256035 0.3055074
0.24278669 0.22667769 -0.06147232 -0.07352813 -0.13596538 -0.19017196 0.025901707 0.16578874
0.100042626 -0.15240031 -0.06415163 0.008433936 0.03791519 -0.28411394 0.04845505 -0.117349476
0.16727743 -0.034476336 -0.20073262 -0.14556578 -0.20512658 -0.28392848 0.0052582175 0.25394884
-0.13959993 0.27170074 0.054688573 0.15108112 0.30766815 -0.0487608 0.29943183 0.16527846
00000000: 18f1 4a3d d53f 713e 6c7b 683c cffc 14be
00000010: c95e 45be 7766 14be 6fa0 5f3e 31a8 453e
00000020: 16e4 88be 74c8 48be 0054 75be 3fa7 293e
00000030: f815 4bbe 70f5 8b3e 1df4 50be 2708 183e
00000040: 0c25 1fbe 5134 5c3e 5d4c e13d 072c bfbb
00000050: 4241 07be dc70 fc3d b564 d43d a851 96be
00000060: b908 58bc cb72 573c b690 35be eee4 683c
00000070: 489c 61be ddb0 953d 859a 943d 776b 9c3e
00000080: 139d 783e 321e 683e 66ca 7bbd eb95 96bd
00000090: 823a 0bbe 70bc 42be d12f d43c 86c4 293e
000000a0: 26e3 cc3d d40e 1cbe ee61 83bd 7e2e 0a3c
000000b0: f54c 1b3d 6277 91be cd78 463d ec54 f0bd
000000c0: c64a 2b3e 0f37 0dbd da8c 4dbe 320f 15be
000000d0: b40c 52be 135f 91be 204d ac3b 9505 823e
000000e0: 49f3 0ebe 5c1c 8b3e 2001 603d 02b5 1a3e
000000f0: ae86 9d3e 68b9 47bd 214f 993e c23e 293e

conv1.lin_r.weight f4 [64, 11]
0.22411004 0.14460914 0.19071022 0.29713607 0.26699284 0.060612407 -0.064407386 0.12243907
-0.28446776 0.09192282 -0.27518773 -0.15980324 -0.20650771 0.025217047 0.27548006 0.261676
0.25024143 -0.113689184 0.1962638 0.07631872 0.27645457 0.23808149 0.07213307 0.021640774
-0.11259451 0.04424987 0.2670135 -0.2537306 0.13005699 0.015548918 -0.27243063 -0.107179195
0.17143038 0.20539606 -0.2590279 -0.031142239 0.25644526 -0.2921547 0.07675036 0.27476275
0.011546949 -0.22300844 0.26683682 0.1552362 0.014319341 0.2843106 0.01682816 -0.18727592
-0.2359623 0.2816562 0.3020879 0.25495633 -0.07723941 0.21408743 0.11988346 -0.2786768
-0.011043556 0.22518079 -0.05555951 -0.04058984 -0.123909816 0.18130341 -0.008538753 0.24868776
-0.18963125 -0.007025424 -0.11875207 0.18948968 -0.28459123 -0.1289365 -0.11150452 -0.22629482
-0.06626871 0.19804904 -0.20045899 -0.08871642 0.14631696 -0.067315444 0.052316215 0.25823873
-0.022529487 0.044257496 -0.17257339 -0.20832236 0.032728836 0.0018406517 -0.2280372 -0.1642429
0.2818889 -0.15720902 0.086580716 0.020083856 0.20782533 -0.01473572 0.0788929 -0.25015637
0.09156014 0.26684773 0.2154913 -0.09944518 -0.24303122 0.10870929 -0.039425146 -0.014414907
0.20478626 -0.14257722 -0.06506421 0.07202828 -0.26495317 0.08640376 0.24019524 0.06104448
-0.09108599 -0.2227854 -0.08247785 -0.08941492 -0.18724607 -0.25451383 0.2905678 0.10181305
0.133988 0.011367532 -0.16472496 -0.11398372 0.2070615 -0.19406736 -0.21721286 -0.13300124
-0.18687786 -0.25962585 0.05265245 -0.16415977 0.0765851 -0.12761793 -0.06836644 0.118419476
-0.20808041 -0.28049207 0.24601418 0.024110675 0.20229727 -0.22336778 -0.26294076 0.073237285
-0.043080922 -0.165371 -0.19028166 0.28416502 -0.08196103 0.045164183 0.03715338 0.009134775
-0.26382488 -0.25970498 0.14125822 -0.028656408 -0.16348316 -0.24918802 -0.1417388 -0.24053176
-0.119794205 0.14753744 0.10557431 0.16342196 0.038349096 -0.17064407 0.10522357 0.20439626
0.22022712 -0.14496957 -0.13980195 -0.07228454 -0.026993074 0.23330764 -0.26921946 -0.26149097
-0.19783726 -0.16977346 -0.18489863 0.3054391 0.14158168 -0.12981403 -0.2029217 -0.113347985
-0.11015347 -0.2819298 0.28853294 0.0018702991 -0.23742177 -0.27914467 0.12971348 -0.091092795
-0.024141409 0.21482931 -0.21946838 -0.10727349 0.2947445 -0.12573382 -0.18635942 -0.07983987
0.039525535 0.24824989 -0.08129551 0.28674257 0.018516252 0.22134328 0.2834441 0.19866323
0.17766963 -0.2921969 -0.12703414 0.14468466 -0.22459136 -0.15543771 -0.21382773 -0.021978855
0.19606584 0.25941268 -0.120612726 -0.119267926 0.28026196 0.25165313 -0.19696853 0.2654827
0.18122502 -0.09157959 0.28993955 -0.15018505 -0.17215773 -0.07355726 0.28861192 0.02727518
-0.12545475 -0.024137659 0.27364707 -0.29579812 -0.19617027 0.24508356 -0.07080381 -0.22375497
0.07686001 -0.21972522 0.14252204 0.24738333 -0.23416273 -0.26218697 -0.2717382 -0.2512176
0.17478609 -0.27433088 0.2459554 0.007924169 0.08266451 -0.30340803 0.23113753 -0.07289118
00000000: 1a7d 653e 6b14 143e 8a49 433e 3822 983e
00000010: 49b3 883e b744 783d 05e8 83bd 56c1 fa3d
00000020: c2a5 91be 0842 bc3d 68e5 8cbe 76a3 23be
00000030: c276 53be fb93 ce3c b90b 8d3e 66fa 853e
00000040: a51f 803e e0d5 e8bd 61f9 483e fd4c 9c3d
00000050: 748b 8d3e a2cb 733e 81ba 933d fe47 b13c
00000060: f397 e6bd 5a3f 353d feb5 883e fae8 81be
00000070: a92d 053e e4c0 7e3c 077c 8bbe c480 dbbd
00000080: 728b 2f3e 5853 523e 4e9f 84be 021e ffbc
00000090: cb4c 833e 4d95 95be 4b2f 9d3d b4ad 8c3e
000000a0: 6a2f 3d3c 535c 64be d69e 883e 3df6 1e3e
000000b0: ab9b 6a3c 2991 913e 36db 893c 42c5 3fbe
000000c0: 1aa0 71be 3e35 903e 44ab 9a3e a389 823e
000000d0: b22f 9ebd bc39 5b3e 7685 f53d baae 8ebe
000000e0: 08f0 34bc cb95 663e 5e92 63bd 8841 26bd
000000f0: 6ec4 fdbd 9aa7 393e 20e6 0bbc 01a8 7e3e
00000100: b22e 42be 8735 e6bb 4934 f3bd 9509 423e
00000110: f1b5 91be ee07 04be 7b5c e4bd d4b9 67be
00000120: e4b7 87bd 5ecd 4a3e 1f45 4dbe f4b0 b5bd
00000130: 1dd4 153e aedc 89bd 8749 563d de37 843e
00000140: c28f b8bc 5947 353d 14b7 30be 7552 55be
00000150: ac0e 063d 0642 f13a 9582 69be 4a2f 28be
00000160: be53 903e 67fb 20be 3b51 b13d e686 a43c
00000170: 2ad0 543e 176e 71bc 9a92 a13d 7f14 80be
00000180: e283 bb3d 44a0 883e c0a9 5c3e eaa9 cbbd
00000190: 2ddd 78be faa2 de3d 437c 21bd 812c 6cbc
000001a0: 7db3 513e c3ff 11be 6240 85bd 9083 933d
000001b0: f1a7 87be 74f4 b03d bef5 753e c709 7a3d
000001c0: 4b8b babd db21 64be 26ea a8bd 2b1f b7bd
000001d0: 6fbd 3fbe a34f 82be 4dc5 943e 5c83 d03d
000001e0: 2634 093e e33e 3a3c a9ad 28be 4c70 e9bd
000001f0: ee07 543e 98b9 46be 0c6d 5ebe 7a31 08be
00000200: e95c 3fbe aeed 84be 18aa 573d 8019 28be
00000210: a6d8 9c3d 46ae 02be b403 8cbd e985 f23d
00000220: 0813 55be a89c 8fbe 24eb 7b3e c083 c53c
00000230: 0427 4f3e 86ba 64be 2ca0 86be 6efd 953d
00000240: 9f75 30bd 0457 29be 32d9 42be 147e 913e
00000250: 2fdb a7bd 14fe 383d 252e 183d 06aa 153c
00000260: 0e14 87be 0df8 84be ffa5 103e d8c0 eabc
00000270: 2168 27be 252b 7fbe fa23 11be f54d 76be
00000280: aa56 f5bd 0e14 173e 5837 d83d 1658 273e
00000290: f113 1d3d 52bd 2ebe 747f d73d 414d 513e
000002a0: 3883 613e e772 14be 3e28 0fbe eb09 94bd
000002b0: 9420 ddbc 33e8 6e3e 22d7 89be 25e2 85be
000002c0: da95 4abe 18d9 2dbe 1156 3dbe 8462 9c3e
000002d0: cafa 103e f8ed 04be b5ca 4fbe fd22 e8bd
000002e0: 2498 e1bd 1a59 90be 97ba 933e d324 f53a
000002f0: b11e 73be 0dec 8ebe 9cd3 043e dc8e babd
00000300: 34c4 c5bc 37fc 5b3e 52bc 60be 34b2 dbbd
00000310: c0e8 963e 5ec0 00be 01d5 3ebe 1683 a3bd
00000320: 87e5 213d 3835 7e3e 437e a6bd eccf 923e
00000330: 65af 973c d0a7 623e 961f 913e 606e 4b3e
00000340: 07ef 353e d59a 95be 3d15 02be 3728 143e
00000350: 47fb 65be 102b 1fbe a8f5 5abe 000d b4bc
00000360: 7cc5 483e bdd1 843e ce03 f7bd be42 f4bd
00000370: 7f7e 8f3e aed8 803e 1eb2 49be 59ed 873e
00000380: 0d93 393e 158e bbbd f572 943e 1cca 19be
00000390: 1e4a 30be 30a5 96bd f1c4 933e 3370 df3c
000003a0: 3677 00be 57bc c5bc 781b 8c3e da72 97be
000003b0: dce0 48be 2ff7 7a3e 9701 91bd 0620 65be
000003c0: c868 9d3d a6ff 60be 4cf1 113e 0e52 7d3e
000003d0: 5bc8 6fbe 5f3d 86be 4521 8bbe 989f 80be
000003e0: 20fb 323e 1975 8cbe bbdb 7b3e 60d4 013c
000003f0: 034c a93d 4c58 9bbe 51af 6c3e f947 95bd

conv2.lin_l.weight f4 [32, 64]
0.025238946 0.0017357392 0.11344825 0.115866505 -0.02435594 -0.111081555 -0.027257644 -0.04675428
0.005601578 0.0052245827 0.016013455 -0.079174705 -0.12111979 0.03991571 -0.035620704 -0.062197983
-0.0007976473 -0.05234945 -0.020456254 -0.0075113694 -0.07361748 0.023380801 0.0062974934 0.027103158
-0.092957854 0.07425728 -0.024241641 0.011720211 -0.055724286 -0.081393465 0.115036 0.10449328
0.05158357 -0.112277426 -0.05356802 0.051620446 -0.03502496 0.076572426 0.099022344 0.04096152
0.07774265 0.047316156 0.031110628 -0.11344393 0.06331178 0.048105985 0.004564409 -0.031116594
-0.09136436 0.08355368 0.10357425 -0.012655311 -0.0953025 -0.11250815 -0.0767633 0.116134524
-0.013053733 -0.051081114 -0.06672903 -0.10056058 -0.11966157 -0.11389873 -0.0060056336 0.04685471
0.107074246 0.056481402 0.077953294 -0.09035225 0.039542954 0.075109236 0.04232522 -0.06257776
0.017838405 0.08504401 -0.07481208 -0.023413168 0.01678477 -0.071948454 -0.0024398312 0.033459794
-0.06953801 -0.00017849743 -0.0988077 0.061582584 -0.017796773 -0.08453064 0.088678494 0.113772154
-0.08504087 0.05686335 -0.070077725 -0.007766367 -0.003731464 -0.09811265 -0.07182434 -0.048153065
0.08522054 0.08748246 -0.0707299 -0.06982892 0.11461345 0.063088685 0.03631782 -0.038002692
0.004147303 -0.09935293 0.096989125 0.04108902 0.015613703 0.019596163 -0.02963126 -0.0520399
-0.07115928 0.049095772 0.03624993 0.057863753 -0.021790551 0.11056402 -0.02156008 0.020617023
-0.044799037 0.08194614 0.0024979375 -0.04461205 -0.074207924 -0.05655157 -0.017080165 0.048170775
-0.12873623 -0.06527355 -0.07081316 -0.11153314 0.092798814 -0.12799932 0.049051665 -0.052477427
-0.0032373844 -0.13060379 0.008702486 0.052749693 -0.075659856 -0.017691292 0.04394205 0.02044354
-0.13246496 0.0396893 -0.033945393 -0.11113571 0.08634908 -0.058379974 0.059547674 0.0033496092
-0.03702774 -0.118266754 -0.07437887 -0.03392719 0.0650827 -0.018562045 0.11442072 -0.13306281
0.019626057 0.01243801 0.07656692 0.053724274 0.08545973 0.06658198 0.011204741 -0.10126671
0.037172183 0.11344649 0.028784012 0.006376737 -0.06920471 -0.12086989 0.07759467 -0.082476094
-0.09622687 0.015252124 -0.12733579 0.080068976 0.10368922 -0.004954989 0.09420259 -0.022440199
-0.064691134 0.09463076 0.06683008 -0.017332073 -0.078205906 -0.10731723 -0.06825349 -0.04620466
-0.10624177 -0.035181332 0.08739468 -0.05590712 0.022834035 0.061070774 0.029929057 0.10607899
0.010485618 -0.037629955 -0.062179156 0.069869734 0.10266504 0.1255218 0.018635334 0.12308376
-0.1055152 0.05477493 0.0628988 0.08098017 0.11509299 0.11940349 0.09791593 0.090372704
0.11112941 0.07589773 0.12046546 0.05857322 -0.075323254 0.08501578 0.017330252 0.059670687
0.103979 -0.020403866 0.07541588 -0.009170621 -0.033629864 -0.023599535 -0.043100752 -0.04625078
-0.08091361 -0.06669138 -0.007259129 -0.066862546 0.102329366 0.06959933 0.078630686 0.06889369
0.05380763 0.070783496 0.0154120885 -0.009986663 -0.009050563 -0.106510326 -0.04192317 -0.011252272
-0.011588919 0.11137254 0.030475212 -0.0050192703 0.1200533 0.094819285 -0.093643636 0.12400978
00000000: e8c1 ce3c be81 e33a 8e57 e83d 6b4b ed3d
00000010: 1c86 c7bc ba7e e3bd 6c4b dfbc 6a81 3fbd
00000020: 718d b73b fa32 ab3b a62e 833c 5926 a2bd
00000030: a70d f8bd a87e 233d 04e7 11bd 50c3 7ebd
00000040: 3419 51ba 606c 56bd e093 a7bc ef21 f6bb
00000050: c3c4 96bd 1889 bf3c 345b ce3b 7107 de3c
00000060: b060 bebd 3314 983d 6896 c6bc 2106 403c
00000070: 263f 64bd 9eb1 a6bd ff97 eb3d 9300 d63d
00000080: 4b49 533d b5f1 e5bd 246a 5bbd f66f 533d
00000090: 5576 0fbd 01d2 9c3d 3acc ca3d 44c7 273d
000000a0: 8a37 9f3d 96ce 413d b7db fe3c 4b55 e8bd
000000b0: 9ba9 813d c80a 453d 0a91 953b 3ae8 febc
000000c0: 3d1d bbbd 311e ab3d bd1e d43d 3958 4fbc
000000d0: f52d c3bd ac6a e6bd 1436 9dbd f0d7 ed3d
000000e0: 53df 55bc 6e3a 51bd 3ba9 88bd b5f2 cdbd
000000f0: 2011 f5bd bd43 e9bd e8ca c4bb b9ea 3f3d
00000100: be49 db3d 0b59 673d faa5 9f3d 9a0a b9bd
00000110: cbf7 213d dfd2 993d 365d 2d3d c528 80bd
00000120: d921 923c 8e2b ae3d 1337 99bd f9cc bfbc
00000130: 3780 893c b659 93bd 93e5 1fbb 230d 093d
00000140: f269 8ebd 0a2b 3bb9 b15b cabd 053e 7c3d
00000150: 8aca 91bc 661e adbd 129d b53d 6001 e93d
00000160: e829 aebd 8be9 683d e984 8fbd 027d febb
00000170: 948b 74bb 49ef c8bd a418 93bd 263c 45bd
00000180: 1b88 ae3d 012a b33d d6da 90bd 7702 8fbd
00000190: 75ba ea3d a434 813d ffc1 143d b6a8 1bbd
000001a0: 19e6 873b 8d79 cbbd 3ca2 c63d f64c 283d
000001b0: 9ed0 7f3c 2288 a03c 42bd f2bc ca27 55bd
000001c0: f5bb 91bd a618 493d ce7a 143d 8b02 6d3d
000001d0: 1982 b2bc 646f e23d c49e b0bc 08e5 a83c
000001e0: 327f 37bd 61d3 a73d 70b4 233b 20bb 36bd
000001f0: 53fa 97bd 9ea2 67bd b4eb 8bbc b84e 453d
00000200: 6ed3 03be 24ae 85bd 7d06 91bd 7d6b e4bd
00000210: 4e0d be3d 4112 03be 66ea 483d 92f2 56bd
00000220: 4c2a 54bb 00bd 05be df94 0e3c 1010 583d
00000230: 8ef3 9abd 54ed 90bc 94fc 333d 3679 a73c
00000240: e5a4 07be 3f91 223d 530a 0bbd 1e9b e3bd
00000250: c9d7 b03d d71f 6fbd 43e8 733d 1e85 5b3b
00000260: 66aa 17bd d735 f2bd f353 98bd 3df7 0abd
00000270: 144a 853d 6e0f 98bc 6955 ea3d 9e41 08be
00000280: d3c6 a03c ccc8 4b3c 1ecf 9c3d fc0d 5c3d
00000290: 8305 af3d 225c 883d 1794 373c ec64 cfbd
000002a0: dc41 183d a256 e83d 73cc eb3c f2f3 d03b
000002b0: 33bb 8dbd a28a f7bd f4e9 9e3d 3ae9 a8bd
000002c0: 9812 c5bd 0be4 793c 5064 02be 34fb a33d
000002d0: 045b d43d 765d a2bb 4aed c03d 82d4 b7bc
000002e0: c97c 84bd c6cd c13d 35de 883d fefb 8dbc
000002f0: 6b2a a0bd 23c9 dbbd 7cc8 8bbd 1941 3dbd
00000300: 4995 d9bd 4d1a 10bd fbfb b23d ddfe 64bd
00000310: 710e bb3c 5925 7a3d c82d f53c f13f d93d
00000320: dfcb 2b3c de21 1abd 92af 7ebd dd17 8f3d
00000330: 0c42 d23d c988 003e 21a9 983c 5713 fc3d
00000340: 5a18 d8bd ad5b 603d 16d1 803d eed8 a53d
00000350: e0b5 eb3d d189 f43d 2688 c83d 5315 b93d
00000360: d197 e33d 4570 9b3d 98b6 f63d 79ea 6f3d
00000370: 1443 9abd c11c ae3d 2cf8 8d3c 4069 743d
00000380: f1f2 d43d 0226 a7bc a473 9a3d 5f40 16bc
00000390: 78bf 09bd d053 c1bc 6a8a 30bd 7571 3dbd
000003a0: 09b6 a5bd 7e95 88bd fddd edbb 3bef 88bd
000003b0: 0f92 d13d 188a 8e3d 2009 a13d 2318 8d3d
000003c0: 6465 5c3d f0f6 903d fc82 7c3c 1a9f 23bc
000003d0: d048 14bc 1622 dabd a1b7 2bbd 735b 38bc
000003e0: 73df 3dbc 4917 e43d 27a7 f93c b178 a4bb
000003f0: 81de f53d 9d30 c23d 3cc8 bfbd d7f8 fd3d

conv2.lin_l.bias f4 [32]
0.09170865 0.05321986 -0.042473696 0.060837932 0.023830013 -0.064914696 0.093486555 -0.010127278
0.109217055 0.042791393 -0.052826777 -0.033814043 -0.04155922 -0.081876405 0.024468632 -0.021219606
-0.11110604 0.055881817 0.09041391 -0.068394236 0.0017049208 -0.0029531326 -0.11265394 -0.0060036825
-0.10197582 -0.11307053 0.10288965 -0.070674226 0.1014268 -0.02929452 -0.04499616 0.06700485
00000000: bfd1 bb3d 11fd 593d e6f8 2dbd 3231 793d
00000010: 2937 c33c fff1 84bd e175 bf3d e2ec 25bc
00000020: 31ad df3d 0746 2f3d e460 58bd 9880 0abd
00000030: 003a 2abd d1ae a7bd 7172 c83c bdd4 adbc
00000040: 908b e3bd 55e4 643d ee2a b93d 4712 8cbd
00000050: a677 df3a 5889 41bb 1cb7 e6bd 8aba c4bb
00000060: b3d8 d0bd 8691 e7bd cfb7 d23d a6bd 90bd
00000070: dbb8 cf3d 10fb efbc e54d 38bd d739 893d

conv2.lin_r.weight f4 [32, 64]
-0.11197765 -0.067641355 -0.11618161 0.04946843 0.038441423 -0.000987434 -0.042729203 0.02520879
0.057321105 -0.08156563 0.10666957 -0.10659316 -0.06705544 0.05368938 0.04164261 0.07568925
-0.104290076 0.093409404 -0.06392661 -0.06054584 -0.02554785 0.07048996 0.022762032 0.043963935
0.019816237 0.052527722 0.02622669 -0.061883625 -0.04664168 -0.123647355 -0.11803648 -0.10647068
-0.07101697 -0.020735128 0.03465618 -0.051906608 0.005133513 -0.08751112 0.114196695 0.0034801904
-0.1262897 -0.06635389 0.003938103 0.080271795 -0.006348862 -0.118471935 0.0061912234 -0.110592514
-0.07446916 0.06842225 0.06374207 0.022333493 -0.09793737 0.032806788 -0.014547322 -0.0026257017
-0.10941154 0.08960109 -0.070868425 -0.09517111 0.098001435 -0.111383155 -0.042577133 -0.10505156
0.07094927 -0.05989912 0.08048162 0.07588534 0.010591038 -0.09708603 -0.009385936 0.032613233
0.06418828 0.018088877 -0.04516837 -0.008301897 0.083583236 0.11878982 -0.009663905 0.109607026
0.006374006 -0.028917745 -0.011653543 -0.010771254 -0.024220869 -0.0161479 -0.013398491 0.06629716
-0.11164897 0.021862037 0.02691133 0.09479123 -0.07488941 -0.063527696 0.07201569 -0.038044125
0.070622414 -0.0004897803 -0.0595043 0.0038567164 0.032648873 0.055774033 -0.05030578 -0.09026896
0.05949196 0.034100693 -0.06768846 0.09791427 0.027037987 0.038241714 -0.06610664 0.09682039
-0.08343231 -0.11242384 -0.11667221 -0.0087929685 -0.032305237 0.03458979 0.1150317 0.061929926
-0.0013755802 -0.10977486 -0.05257276 0.10430555 0.029619923 0.12688735 0.08775342 -0.050102808
-0.05917576 0.06745335 -0.05125852 0.016723055 0.012697912 -0.10352157 0.08185009 0.043711178
-0.12814605 -0.08599497 0.091616966 0.0733832 -0.09120698 0.04077728 -0.10803526 0.06513477
-0.04295014 0.061339557 -0.07589849 0.016497932 -0.112290725 0.11380415 0.028916521 -0.12605761
-0.09310992 0.033048373 0.044223808 0.08671156 0.072112285 -0.107875995 -0.12522581 0.010501691
0.079144455 -0.03230973 -0.03718663 -0.041299038 -0.07664723 -0.03956337 0.06432463 -0.06593669
-0.010728654 -0.087459855 0.10525181 0.092859484 -0.0132337455 -0.036691755 -0.019129436 0.035660192
0.08428054 0.06550913 0.07215973 -0.01289057 -0.047724016 -0.10562547 -0.047409162 -0.129509
-0.12794323 0.10860383 -0.106403895 -0.06983637 -0.048571527 -0.029759262 0.10780658 -0.075513184
0.13097711 -0.099348135 0.11419812 -0.06292704 0.12679413 0.072992 -0.06687474 0.10057516
-0.109008476 0.018975846 -0.049784414 -0.01652431 0.117118135 0.10263781 -0.026746059 0.041330382
0.0011770243 0.041307442 -0.0229638 -0.023861082 -0.07543269 -0.08195613 0.10824937 -0.09577976
0.051817786 0.101165205 0.013937267 0.02768798 -0.10837811 -0.047634024 0.09213513 0.12716062
-0.0146352975 -0.06203471 0.0023567867 -0.07243234 0.06314607 -0.08946488 0.024110628 -0.09520933
0.12797059 0.026333293 0.11642698 0.03953125 0.03200709 -0.09522904 0.021447672 0.042248532
0.058175925 0.09190708 0.065200046 0.06097726 -0.084611066 0.07477941 0.059841532 -0.081556976
-0.004835937 -0.022355769 0.10247364 0.07423427 0.020370385 0.115312494 -0.03726985 -0.059226602
00000000: 8a54 e5bd 8d87 8abd a0f0 edbd 699f 4a3d
00000010: c174 1d3d c96c 81ba d104 2fbd aa82 ce3c
00000020: 89c9 6a3d e20b a7bd 9375 da3d 844d dabd
00000030: 5d54 89bd 65e9 5b3d 7191 2a3d f702 9b3d
00000040: 0996 d5bd 6e4d bf3d f4eb 82bd eafe 77bd
00000050: ba49 d1bc 0a5d 903d 7177 ba3c 8713 343d
00000060: a955 a23c 4f27 573d 5bd9 d63c af79 7dbd
00000070: 590b 3fbd d33a fdbd 1cbd f1bd 4d0d dabd
00000080: 5871 91bd b7dc a9bc a3f3 0d3d 069c 54bd
00000090: 0737 a83b 0839 b3bd f5df e93d e813 643b
000000a0: 1652 01be 8ce4 87bd 340b 813b 8a65 a43d
000000b0: 1d0a d0bb 6aa1 f2bd bfdf ca3b 547e e2bd
000000c0: 4983 98bd f720 8c3d 348b 823d bbf4 b63c
000000d0: 6393 c8bd 6960 063d e457 6ebc f713 2cbb
000000e0: 2813 e0bd c780 b73d 7723 91bd 12e9 c2bd
000000f0: fab4 c83d da1c e4bd 5c65 2ebd 4625 d7bd
00000100: da4d 913d c858 75bd 8cd3 a43d c669 9b3d
00000110: 0886 2d3c 0ad5 c6bd 78c7 19bc 7495 053d
00000120: 2575 833d 202f 943c 7802 39bd ae04 08bc
00000130: b02d ab3d 1448 f33d 5b55 1ebc a679 e03d
00000140: 0add d03b e8e4 ecbc 81ee 3ebc ea79 30bc
00000150: d86a c6bc 9a48 84bc 5885 5bbc cec6 873d
00000160: 37a8 e4bd 0418 b33c 2675 dc3c e821 c23d
00000170: 9e5f 99bd cf1a 82bd f67c 933d 28d4 1bbd
00000180: 7ca2 903d 9964 00ba c8ba 73bd f7c0 7c3b
00000190: d3ba 053d 5073 643d 6f0d 4ebd efde b8bd
000001a0: d7ad 733d 2bad 0b3d 3fa0 8abd 4787 c83d
000001b0: c57e dd3c 58a3 1c3d eb62 87bd c549 c63d
000001c0: 8fde aabd 783e e6bd d7f1 eebd 6210 10bc
000001d0: 7f52 04bd 06ae 0d3d bd95 eb3d 3caa 7d3d
000001e0: d04c b4ba a4d1 e0bd 8956 57bd 269e d53d
000001f0: 7ba5 f23c c2ee 013e 11b8 b33d 9a38 4dbd
00000200: 4862 72bd fb24 8a3d 74f4 51bd cafe 883c
00000210: e70a 503c 1e03 d4bd 05a1 a73d 7e0a 333d
00000220: b838 03be 211e b0bd ada1 bb3d ee49 963d
00000230: baca babd 1406 273d 9741 ddbd 6165 853d
00000240: 7cec 2fbd 303f 7b3d ab70 9bbd ac26 873c
00000250: aef8 e5bd 2612 e93d 57e2 ec3c 3f15 01be
00000260: 6ab0 bebd bb5d 073d 0624 353d d595 b13d
00000270: 9baf 933d 17ee dcbd 323b 00be 490f 2c3c
00000280: 7d16 a23d 3557 04bd 0251 18bd 2e29 29bd
00000290: 39f9 9cbd 330d 22bd a2bc 833d d109 87bd
000002a0: 3dc7 2fbc 271e b3bd 438e d73d 1d2d be3d
000002b0: 5ad2 58bc 184a 16bd 56b5 9cbc 6c10 123d
000002c0: 479b ac3d a729 863d 7bc8 933d f832 53bc
000002d0: 427a 43bd 2b52 d8bd 1c30 42bd 029e 04be
000002e0: 8d03 03be af6b de3d 49ea d9bd 5f06 8fbd
000002f0: f0f2 46bd b2c9 f3bc b2c9 dc3d a8a6 9abd
00000300: dd1e 063e 0977 cbbd b4e0 e93d e4df 80bd
00000310: 52d6 013e d47c 953d a0f5 88bd 59fa cd3d
00000320: d63f dfbd 3c73 9b3c beea 4bbd fd5d 87bc
00000330: a2db ef3d c633 d23d 8d1a dbbc 0c4a 293d
00000340: 6246 9a3a fe31 293d 941e bcbc 5178 c3bc
00000350: 747c 9abd 9ed8 a7bd d8b1 dd3d 2e28 c4bd
00000360: e33e 543d b42f cf3d 2259 643c e7d1 e23c
00000370: 58f5 ddbd e51b 43bd 58b1 bc3d 6536 023e
00000380: e3c8 6fbc 1c18 7ebd 5274 1a3b 6857 94bd
00000390: ba52 813d 5d39 b7bd a783 c53c 1cfd c2bd
000003a0: b90a 033e ebb8 d73c 4571 ee3d 85eb 213d
000003b0: de19 033d 7107 c3bd 07b3 af3c cc0c 2d3d
000003c0: e149 6e3d c739 bc3d 9a87 853d 4bc3 793d
000003d0: 9148 adbd f325 993d 651c 753d 5807 a7bd
000003e0: c876 9ebb 7223 b7bc b3dd d13d 2308 983d
000003f0: cbdf a63c f528 ec3d 45a8 18bd 9897 72bd
