output/models/link_predictor.pt (torch, 19491 bytes, 3 tensors)

lin1.weight f4 [64, 64]
-0.09955129 -0.05819798 -0.10200602 -0.043225028 0.0051309243 0.082696974 -0.101395085 -0.022918882
0.12369209 -0.02913489 -0.04945897 0.027154477 0.036984906 -0.11892041 0.047033932 0.07032379
-0.041904636 -0.050968125 0.10526766 -0.07270244 0.051096585 0.03189842 0.035424665 0.0021249661
0.047889065 -0.115794145 -0.052600585 -0.079004854 0.06796777 -0.10708474 -0.11580006 0.085310586
0.004322225 0.07789202 -0.035631694 0.0415452 -0.019483019 0.015954385 0.08815094 0.020018585
-0.052892953 0.09948185 -0.059109572 0.06541024 0.0072526047 0.04371603 -0.029713437 -0.11490998
-0.026407208 0.075782344 0.023979582 -0.10395819 -0.045590237 -0.094718456 -0.030931838 0.014117706
0.09363249 -0.056051854 0.024861535 -0.025720691 -0.047819123 0.110994056 0.10042002 0.105813265
-0.05722286 0.03247109 -0.08195481 -0.10835759 -0.06834715 0.108539164 0.050439574 -0.02338428
0.019201484 0.11147693 0.07978678 -0.0059035867 0.028180292 0.10940987 0.07382412 0.04877492
-0.018819131 0.06472593 -0.051439453 0.10366683 0.04694833 0.038470697 0.09324773 -0.037049405
-0.01037272 -0.03801065 0.09869267 0.085200995 -0.09964355 0.03044852 0.052072372 -0.05640763
-0.062917955 -0.11656593 0.055569794 0.04575879 -0.028576484 -0.038493752 0.02282957 0.11918342
0.09889578 -0.025833083 0.100648746 0.052968793 -0.1068885 -0.041400217 0.014782474 -0.08312185
-0.0066845524 -0.058405656 -0.07694671 0.097143844 -0.11356733 0.061245933 0.065281846 0.051228575
-0.05281793 -0.010414796 0.039321028 -0.07180249 -0.051865548 -0.036080033 0.04848623 -0.0007257605
0.08350391 0.03690124 -0.07678142 -0.104801364 -0.08034654 -0.08209404 0.09350232 -0.06067376
-0.11274969 0.106061816 0.046839043 0.016364371 0.115019806 0.010751885 0.10162337 0.0366183
-0.05175263 0.10183116 0.001310744 0.07500929 0.04425319 -0.0014046875 -0.102029845 -0.099188596
-0.0846713 0.08005539 -0.027030423 0.09153497 -0.0012367815 0.035529394 -0.05983429 0.09844469
0.068664365 0.074108414 0.061785437 -0.09502803 0.03553951 -0.096601576 -0.06901495 -0.064708985
-0.07601327 0.077981226 -0.052471332 0.03169179 0.08608462 -0.055095725 0.070472404 0.09465684
0.014679284 -0.078833796 0.072389364 -0.088582896 -0.048834383 -0.056629658 0.024080152 -0.07208676
-0.052438196 0.11870925 0.0010270212 0.08993554 -0.06670365 0.07601546 -0.09334089 -0.065296024
-0.035430472 -0.06827361 0.0085425535 -0.10772313 -0.06760545 0.08148307 0.010063344 0.117540725
-0.03457869 0.0843145 -0.0810473 -0.022620661 0.11845384 0.112061605 0.092207566 -0.038488112
-0.01581878 -0.11316799 -0.06745692 0.062913425 0.09232296 0.01670734 -0.001609205 -0.07002728
-0.04502011 -0.052994836 -0.02432115 0.0216443 -0.04676367 0.03856546 -0.08651741 0.093542986
0.049867027 0.081006266 -0.035664722 -0.08775301 -0.0013474431 0.09887065 0.02633686 -0.004995951
0.039127063 0.021638565 -0.0028808275 0.037712343 0.07046286 -0.076938756 -0.0643348 0.041008342
0.09946796 -0.11662758 -0.010609915 -0.11260025 0.09295548 0.01808356 -0.009549029 0.10170761
-0.10445945 0.09409875 -0.04961755 0.010772989 -0.00234395 -0.026610564 0.072017334 0.10947874
00000000: 8ce1 cbbd 0161 6ebd 88e8 d0bd ba0c 31bd
00000010: 5021 a83b 085d a93d 3aa8 cfbd 61c0 bbbc
00000020: 4752 fd3d 4bac eebc 7d95 4abd 1173 de3c
00000030: 7c7d 173d 8b8c f3bd a7a6 403d eb05 903d
00000040: 32a4 2bbd f4c3 50bd 9296 d73d 04e5 94bd
00000050: a74a 513d eba7 023d 7419 113d 0443 0b3b
00000060: 5327 443d 7b25 edbd b673 57bd 4ccd a1bd
00000070: b032 8b3d 3f4f dbbd 9528 edbd 51b7 ae3d
00000080: 74a1 8d3b da85 9f3d 8af2 11bd 4d2b 2a3d
00000090: da9a 9fbc c5b2 823c 7b88 b43d 04fe a33c
000000a0: 48a6 58bd 24bd cb3d e11c 72bd cef5 853d
000000b0: 42a7 ed3b 940f 333d 9869 f3bc ec55 ebbd
000000c0: ee53 d8bc c633 9b3d d470 c43c 08e8 d4bd
000000d0: d4bc 3abd c0fb c1bd c464 fdbc f34d 673c
000000e0: 64c2 bf3d a196 65bd 6baa cb3c 33b4 d2bc
000000f0: fcdd 43bd da50 e33d 03a9 cd3d a0b4 d83d
00000100: 8562 6abd 6800 053d ecd7 a7bd 96ea ddbd
00000110: 97f9 8bbd c849 de3d ba99 4e3d 6490 bfbc
00000120: 6e4c 9d3c 044e e43d 4067 a33d e072 c1bb
00000130: 5bda e63c 4812 e03d 1a31 973d 36c8 473d
00000140: 942a 9abc 078f 843d 2db2 52bd 464f d43d
00000150: e44c 403d 7393 1d3d aaf8 be3d 1ec1 17bd
00000160: 57f2 29bc 0eb1 1bbd 621f ca3d dc7d ae3d
00000170: eb11 ccbd 2d6f f93c d749 553d b00b 67bd
00000180: 21db 80bd 1eba eebd 279d 633d 926d 3b3d
00000190: 3b19 eabc a0ab 1dbd 1405 bb3c 7016 f43d
000001a0: df89 ca3d e79f d3bc ee20 ce3d cef5 583d
000001b0: 5ce8 dabd 4693 29bd 3132 723c ca3b aabd
000001c0: 170a dbbb c53a 6fbd 3d96 9dbd 5af3 c63d
000001d0: fd95 e8bd 04dd 7a3d 7db2 853d 0ed5 513d
000001e0: 9d57 58bd d2a2 2abc 160f 213d 2f0d 93bd
000001f0: f870 54bd a8c8 13bd 7f99 463d f640 3eba
00000200: 1904 ab3d c125 173d 943f 9dbd 19a2 d6bd
00000210: ba8c a4bd ec20 a8bd 257e bf3d 0c85 78bd
00000220: 4fe9 e6bd f036 d93d 4cda 3f3d 930e 863c
00000230: 818f eb3d ad28 303c ea1f d03d 12fd 153d
00000240: 91fa 53bd db8c d03d 45cd ab3a 789e 993d
00000250: d542 353d 7e1d b8ba 06f5 d0bd 6423 cbbd
00000260: 2668 adbd 15f4 a33d e86e ddbc b076 bb3d
00000270: 801b a2ba 4587 113d cd14 75bd 5f9d c93d
00000280: e79f 8c3d 27c6 973d ba12 7d3d 0e9e c2bd
00000290: e191 113d 0cd7 c5bd b657 8dbd 2586 84bd
000002a0: d8ac 9bbd 9fb4 9f3d 2eec 56bd 40cf 013d
000002b0: 224d b03d 0eac 61bd d653 903d 72db c13d
000002c0: 6181 703c 9d73 a1bd e040 943d f36a b5bd
000002d0: 9006 48bd 80f4 67bd bd43 c53c 39a2 93bd
000002e0: 6fc9 56bd d61d f33d 1d9d 863a 2030 b83d
000002f0: ec9b 88bd fead 9b3d 8229 bfbd ecb9 85bd
00000300: 8b1f 11bd 09d3 8bbd 11f6 0b3c f29d dcbd
00000310: ba74 8abd 99e0 a63d b9e0 243c 31b9 f03d
00000320: 62a2 0dbd 15ad ac3d 20fc a5bd f74e b9bc
00000330: ed97 f23d 8e80 e53d 52d7 bc3d b6a5 1dbd
00000340: 6396 81bc 9fc4 e7bd db26 8abd c1d8 803d
00000350: d213 bd3d d5dd 883c f6eb d2ba 766a 8fbd
00000360: 0267 38bd 1d11 59bd 263d c7bc 634f b13c
00000370: 438b 3fbd d1f6 1d3d 0a30 b1bd 7793 bf3d
00000380: 5e41 4c3d 9de6 a53d 2c15 12bd dab7 b3bd
00000390: b09c b0ba b27c ca3d 66c0 d73c 13b5 a3bb
000003a0: b343 203d 5c43 b13c 44cc 3cbb 4278 1a3d
000003b0: d54e 903d 1192 9dbd f7c1 83bd 5df8 273d
000003c0: dcb5 cb3d 71da eebd 35d5 2dbc f69a e6bd
000003d0: 715f be3d f923 943c 8873 1cbc 144c d03d
000003e0: d6ee d5bd d8b6 c03d c63b 4bbd 3181 303c
000003f0: f59c 19bb 66fe d9bc d37d 933d 6436 e03d

lin1.bias f4 [64]
0.032933448 0.10007206 0.060898643 -0.056854006 0.04761743 -0.10634076 -0.08030018 -0.080372535
-0.042067956 0.09217379 -0.03818403 0.0672574 -0.038704243 0.11117132 0.08826776 0.057699412
0.05692147 -0.015025126 -0.097335756 -0.08019063 -0.09049707 0.0021576516 0.13291238 0.08851368
0.025380395 -0.08819868 -0.09753352 0.002466854 0.050650116 -0.08674644 0.08560501 0.08756927
0.11222804 0.048364945 0.10827699 0.03739386 -0.014715375 0.05642718 -0.037572913 -0.101610586
-0.0305056 -0.08811491 -0.079571046 0.10024526 -0.1020658 0.041264094 -0.07464857 -0.08714468
-0.047171973 0.040083848 0.059703946 0.059618294 0.0582487 0.018588044 0.009189991 0.035807602
-0.13227218 0.05426956 0.081594475 0.06346169 -0.11073351 0.03728525 -0.10321104 0.10707112
00000000: 39e5 063d 95f2 cc3d db70 793d bfdf 68bd
00000010: 7f0a 433d 2fc9 d9bd 6c74 a4bd 5b9a a4bd
00000020: 734f 2cbd 9dc5 bc3d dc66 1cbd 3fbe 893d
00000030: 5788 1ebd caad e33d bac5 b43d 3856 6c3d
00000040: 7d26 693d f22b 76bc f857 c7bd fc3a a4bd
00000050: 8756 b9bd 6367 0d3b 2f1a 083e a946 b53d
00000060: 8cea cf3c 82a1 b4bd a7bf c7bd f1aa 213b
00000070: 7f76 4f3d 1ea8 b1bd ae51 af3d 8457 b33d
00000080: d1d7 e53d 521a 463d 54c0 dd3d 4e2a 193d
00000090: c218 71bc 3020 673d 0ee6 19bd 3619 d0bd
000000a0: e1e6 f9bc 9775 b4bd 25f6 a2bd 634d cd3d
000000b0: e007 d1bd 8a04 293d 59e1 98bd e978 b2bd
000000c0: 6637 41bd f62e 243d 208c 743d 5032 743d
000000d0: 3096 6e3d f445 983c 9e91 163c feaa 123d
000000e0: 5c72 07be c249 5e3d 011b a73d 34f8 813d
000000f0: 40c8 e2bd 6bb8 183d 4f60 d3bd 1a48 db3d

lin2.weight f4 [1, 64]
-0.11677098 -0.12282662 0.07996931 -0.116400175 0.03780538 0.0371679 -0.10086427 -0.087798186
-0.09179944 -0.130354 -0.11011032 0.059258673 0.11494305 0.052062605 -0.07409115 0.06562924
-0.12221369 -0.059125554 -0.081605434 -0.11143602 0.10415743 -0.11798786 -0.035553128 -0.10866029
-0.054287147 -0.031802516 0.042300783 0.07964454 -0.0639438 -0.07098688 -0.031355266 0.028879348
0.029897917 -0.07716903 -0.049985588 -0.04632258 0.06845997 -0.10538205 0.033547252 -0.11864432
-0.058560554 -0.004119669 -0.09685235 -0.034900103 -0.13148439 0.10779645 -0.0008183037 -0.08369738
0.10334232 -0.0047074594 -0.059365965 -0.0029277145 -0.11138237 0.04603166 -0.12893628 0.022463515
0.032747194 -0.038906977 -0.10825819 0.049596608 0.0034858417 0.102200665 0.028818214 -0.13188685
00000000: a025 efbd 868c fbbd f3c6 a33d 3763 eebd
00000010: d0d9 1a3d 5e3d 183d ed91 cebd 89cf b3bd
00000020: 5801 bcbd 857b 05be 8581 e1bd 39b9 723d
00000030: 4367 eb3d 993f 553d 1abd 97bd 9f68 863d
00000040: 2c4b fabd a32d 72bd c020 a7bd 9138 e4bd
00000050: 7e50 d53d 9fa3 f1bd 28a0 11bd 4989 debd
00000060: 335c 5ebd 5b43 02bd 9643 2d3d ad1c a33d
00000070: f8f4 82bd 9261 91bd 616e 00bd 6294 ec3c
00000080: 7aec f43c cc0a 9ebd b0bd 4cbd bfbc 3dbd
00000090: be34 8c3d 8bd2 d7bd d868 093d cbfb f2bd
000000a0: 31dd 6fbd 4afe 86bb 865a c6bd 69f3 0ebd
000000b0: d8a3 06be 63c4 dc3d 6f83 56ba 8869 abbd
000000c0: 23a5 d33d 0841 9abb ba29 73bd e6de 3fbb
000000d0: 711c e4bd b28b 3c3d df07 04be 6805 b83c
000000e0: ec21 063d ec5c 1fbd 78b6 ddbd d025 4b3d
000000f0: b872 643b 954e d13d 2d14 ec3c 590d 07be
